{"weightsManifest": [{"paths": ["group1-shard1of1.bin"], "weights": [{"dtype": "float32", "shape": [256, 38], "name": "dense_1/kernel"}, {"dtype": "float32", "shape": [38], "name": "dense_1/bias"}, {"dtype": "float32", "shape": [38, 1024], "name": "lstm_1/kernel"}, {"dtype": "float32", "shape": [256, 1024], "name": "lstm_1/recurrent_kernel"}, {"dtype": "float32", "shape": [1024], "name": "lstm_1/bias"}, {"dtype": "float32", "shape": [256, 1024], "name": "lstm_2/kernel"}, {"dtype": "float32", "shape": [256, 1024], "name": "lstm_2/recurrent_kernel"}, {"dtype": "float32", "shape": [1024], "name": "lstm_2/bias"}]}], "modelTopology": {"training_config": {"metrics": [], "loss": "categorical_crossentropy", "optimizer_config": {"class_name": "Adam", "config": {"beta_1": 0.8999999761581421, "beta_2": 0.9990000128746033, "decay": 0.0, "epsilon": 1e-07, "amsgrad": false, "lr": 0.0010000000474974513}}, "loss_weights": null, "sample_weight_mode": null}, "keras_version": "2.2.4", "model_config": {"class_name": "Sequential", "config": {"layers": [{"class_name": "LSTM", "config": {"recurrent_activation": "hard_sigmoid", "dtype": "float32", "trainable": true, "recurrent_initializer": {"class_name": "Orthogonal", "config": {"seed": null, "gain": 1.0}}, "use_bias": true, "bias_regularizer": null, "return_state": false, "unroll": false, "bias_initializer": {"class_name": "Zeros", "config": {}}, "units": 256, "batch_input_shape": [null, 29, 38], "activity_regularizer": null, "recurrent_dropout": 0.3, "kernel_initializer": {"class_name": "VarianceScaling", "config": {"distribution": "uniform", "scale": 1.0, "seed": null, "mode": "fan_avg"}}, "kernel_constraint": null, "activation": "tanh", "stateful": false, "dropout": 0.0, "unit_forget_bias": true, "recurrent_regularizer": null, "name": "lstm_1", "bias_constraint": null, "go_backwards": false, "implementation": 1, "kernel_regularizer": null, "return_sequences": true, "recurrent_constraint": null}}, {"class_name": "LSTM", "config": {"recurrent_activation": "hard_sigmoid", "trainable": true, "recurrent_initializer": {"class_name": "Orthogonal", "config": {"seed": null, "gain": 1.0}}, "use_bias": true, "bias_regularizer": null, "return_state": false, "unroll": false, "bias_initializer": {"class_name": "Zeros", "config": {}}, "units": 256, "unit_forget_bias": true, "activity_regularizer": null, "recurrent_dropout": 0.3, "kernel_initializer": {"class_name": "VarianceScaling", "config": {"distribution": "uniform", "scale": 1.0, "seed": null, "mode": "fan_avg"}}, "kernel_constraint": null, "activation": "tanh", "stateful": false, "dropout": 0.0, "recurrent_regularizer": null, "name": "lstm_2", "bias_constraint": null, "go_backwards": false, "implementation": 1, "kernel_regularizer": null, "return_sequences": false, "recurrent_constraint": null}}, {"class_name": "Dense", "config": {"kernel_initializer": {"class_name": "VarianceScaling", "config": {"distribution": "uniform", "scale": 1.0, "seed": null, "mode": "fan_avg"}}, "name": "dense_1", "bias_regularizer": null, "bias_constraint": null, "activation": "softmax", "trainable": true, "kernel_constraint": null, "kernel_regularizer": null, "bias_initializer": {"class_name": "Zeros", "config": {}}, "units": 38, "use_bias": true, "activity_regularizer": null}}], "name": "sequential_1"}}, "backend": "tensorflow"}, "generatedBy": "keras v2.2.4", "convertedBy": "TensorFlow.js Converter v1.2.2.1", "format": "layers-model"}